…
2020-11-13 13:34:53,332 INFO: Dataset PairedImageDataset - Mini-DIV2K_Train is created.
2020-11-13 13:34:53,333 INFO: Training statistics:
	Number of train images: 20424
	Dataset enlarge ratio: 100
	Batch size per gpu: 16
	World size (gpu number): 1
	Require iter number per epoch: 127650
	Total epochs: 8; iters: 1000000.
2020-11-13 13:34:53,341 INFO: Dataset PairedImageDataset - Mini-DIV2K_Val is created.
2020-11-13 13:34:53,341 INFO: Number of val images/folders in Mini-DIV2K_Val: 80
2020-11-13 13:34:54,674 INFO: Network: MSRResNet, with parameters: 1,812,995
2020-11-13 13:34:54,675 INFO: MSRResNet(
  (conv_first): Conv2d(3, 64, kernel_size=(3, 3), stride=(1, 1), padding=(1, 1))
  (body): Sequential(
    (0): ResidualBlockNoBN(
      (conv1): Conv2d(64, 64, kernel_size=(3, 3), stride=(1, 1), padding=(1, 1))
      (conv2): Conv2d(64, 64, kernel_size=(3, 3), stride=(1, 1), padding=(1, 1))
      (relu): ReLU(inplace=True)
    )
    (1): ResidualBlockNoBN(
      (conv1): Conv2d(64, 64, kernel_size=(3, 3), stride=(1, 1), padding=(1, 1))
      (conv2): Conv2d(64, 64, kernel_size=(3, 3), stride=(1, 1), padding=(1, 1))
      (relu): ReLU(inplace=True)
    )
    (2): ResidualBlockNoBN(
      (conv1): Conv2d(64, 64, kernel_size=(3, 3), stride=(1, 1), padding=(1, 1))
      (conv2): Conv2d(64, 64, kernel_size=(3, 3), stride=(1, 1), padding=(1, 1))
      (relu): ReLU(inplace=True)
    )
    (3): ResidualBlockNoBN(
      (conv1): Conv2d(64, 64, kernel_size=(3, 3), stride=(1, 1), padding=(1, 1))
      (conv2): Conv2d(64, 64, kernel_size=(3, 3), stride=(1, 1), padding=(1, 1))
      (relu): ReLU(inplace=True)
    )
    (4): ResidualBlockNoBN(
      (conv1): Conv2d(64, 64, kernel_size=(3, 3), stride=(1, 1), padding=(1, 1))
      (conv2): Conv2d(64, 64, kernel_size=(3, 3), stride=(1, 1), padding=(1, 1))
      (relu): ReLU(inplace=True)
    )
    (5): ResidualBlockNoBN(
      (conv1): Conv2d(64, 64, kernel_size=(3, 3), stride=(1, 1), padding=(1, 1))
      (conv2): Conv2d(64, 64, kernel_size=(3, 3), stride=(1, 1), padding=(1, 1))
      (relu): ReLU(inplace=True)
    )
    (6): ResidualBlockNoBN(
      (conv1): Conv2d(64, 64, kernel_size=(3, 3), stride=(1, 1), padding=(1, 1))
      (conv2): Conv2d(64, 64, kernel_size=(3, 3), stride=(1, 1), padding=(1, 1))
      (relu): ReLU(inplace=True)
    )
    (7): ResidualBlockNoBN(
      (conv1): Conv2d(64, 64, kernel_size=(3, 3), stride=(1, 1), padding=(1, 1))
      (conv2): Conv2d(64, 64, kernel_size=(3, 3), stride=(1, 1), padding=(1, 1))
      (relu): ReLU(inplace=True)
    )
    (8): ResidualBlockNoBN(
      (conv1): Conv2d(64, 64, kernel_size=(3, 3), stride=(1, 1), padding=(1, 1))
      (conv2): Conv2d(64, 64, kernel_size=(3, 3), stride=(1, 1), padding=(1, 1))
      (relu): ReLU(inplace=True)
    )
    (9): ResidualBlockNoBN(
      (conv1): Conv2d(64, 64, kernel_size=(3, 3), stride=(1, 1), padding=(1, 1))
      (conv2): Conv2d(64, 64, kernel_size=(3, 3), stride=(1, 1), padding=(1, 1))
      (relu): ReLU(inplace=True)
    )
    (10): ResidualBlockNoBN(
      (conv1): Conv2d(64, 64, kernel_size=(3, 3), stride=(1, 1), padding=(1, 1))
      (conv2): Conv2d(64, 64, kernel_size=(3, 3), stride=(1, 1), padding=(1, 1))
      (relu): ReLU(inplace=True)
    )
    (11): ResidualBlockNoBN(
      (conv1): Conv2d(64, 64, kernel_size=(3, 3), stride=(1, 1), padding=(1, 1))
      (conv2): Conv2d(64, 64, kernel_size=(3, 3), stride=(1, 1), padding=(1, 1))
      (relu): ReLU(inplace=True)
    )
    (12): ResidualBlockNoBN(
      (conv1): Conv2d(64, 64, kernel_size=(3, 3), stride=(1, 1), padding=(1, 1))
      (conv2): Conv2d(64, 64, kernel_size=(3, 3), stride=(1, 1), padding=(1, 1))
      (relu): ReLU(inplace=True)
    )
    (13): ResidualBlockNoBN(
      (conv1): Conv2d(64, 64, kernel_size=(3, 3), stride=(1, 1), padding=(1, 1))
      (conv2): Conv2d(64, 64, kernel_size=(3, 3), stride=(1, 1), padding=(1, 1))
      (relu): ReLU(inplace=True)
    )
    (14): ResidualBlockNoBN(
      (conv1): Conv2d(64, 64, kernel_size=(3, 3), stride=(1, 1), padding=(1, 1))
      (conv2): Conv2d(64, 64, kernel_size=(3, 3), stride=(1, 1), padding=(1, 1))
      (relu): ReLU(inplace=True)
    )
    (15): ResidualBlockNoBN(
      (conv1): Conv2d(64, 64, kernel_size=(3, 3), stride=(1, 1), padding=(1, 1))
      (conv2): Conv2d(64, 64, kernel_size=(3, 3), stride=(1, 1), padding=(1, 1))
      (relu): ReLU(inplace=True)
    )
    (16): ResidualBlockNoBN(
      (conv1): Conv2d(64, 64, kernel_size=(3, 3), stride=(1, 1), padding=(1, 1))
      (conv2): Conv2d(64, 64, kernel_size=(3, 3), stride=(1, 1), padding=(1, 1))
      (relu): ReLU(inplace=True)
    )
    (17): ResidualBlockNoBN(
      (conv1): Conv2d(64, 64, kernel_size=(3, 3), stride=(1, 1), padding=(1, 1))
      (conv2): Conv2d(64, 64, kernel_size=(3, 3), stride=(1, 1), padding=(1, 1))
      (relu): ReLU(inplace=True)
    )
    (18): ResidualBlockNoBN(
      (conv1): Conv2d(64, 64, kernel_size=(3, 3), stride=(1, 1), padding=(1, 1))
      (conv2): Conv2d(64, 64, kernel_size=(3, 3), stride=(1, 1), padding=(1, 1))
      (relu): ReLU(inplace=True)
    )
    (19): ResidualBlockNoBN(
      (conv1): Conv2d(64, 64, kernel_size=(3, 3), stride=(1, 1), padding=(1, 1))
      (conv2): Conv2d(64, 64, kernel_size=(3, 3), stride=(1, 1), padding=(1, 1))
      (relu): ReLU(inplace=True)
    )
  )
  (upconv1): Conv2d(64, 256, kernel_size=(3, 3), stride=(1, 1), padding=(1, 1))
  (upconv2): Conv2d(64, 256, kernel_size=(3, 3), stride=(1, 1), padding=(1, 1))
  (pixel_shuffle): PixelShuffle(upscale_factor=2)
  (conv_hr): Conv2d(64, 64, kernel_size=(3, 3), stride=(1, 1), padding=(1, 1))
  (conv_last): Conv2d(64, 3, kernel_size=(3, 3), stride=(1, 1), padding=(1, 1))
  (lrelu): LeakyReLU(negative_slope=0.1, inplace=True)
)
2020-11-13 13:34:54,677 INFO: Loading MSRResNet model from experiments/001_MSRResNet_x4_f64b16_DIV2K_1000k_B16G1_wandb.6000000/models/net_g_770000.pth.
2020-11-13 13:34:54,738 INFO: Model [SRModel] is created.
2020-11-13 13:35:01,096 INFO: Use cuda prefetch dataloader
2020-11-13 13:35:01,099 INFO: Start training from epoch: 0, iter: 0
…
